assets/finger/weights/palm.npy (npy, 679744 bytes, 1 tensors)

array f8 [56, 1517]
000000 56 0d c2 dc ee e5 ba bf fc 8a 35 5c e4 9e ba bf
       -0.105071 -0.103987
000010 d7 c0 56 09 16 87 b7 bf 74 ed 0b e8 85 3b b7 bf
       -0.091905 -0.090752
000020 a2 d3 f3 6e 2c 28 b4 bf a2 f0 d9 3a 38 d8 b3 bf
       -0.078738 -0.077518
000030 6d e6 90 d4 42 c9 b0 bf 1a 53 b0 c6 d9 74 b0 bf
       -0.065571 -0.064283
000040 db 33 4b 02 d4 d4 aa bf 8e ac fc 32 18 23 aa bf
       -0.052405 -0.051049
000050 71 59 85 cd 00 17 a4 bf 7e 71 a9 4a 5b 5c a3 bf
       -0.039238 -0.037814
000060 0d fe 7e 31 5b b2 9a bf b3 ef 8a e0 7f 2b 99 bf
       -0.026071 -0.02458
000070 20 98 a3 c7 ef 6d 8a bf 09 c1 aa 7a f9 9d cc bf
       -0.012905 -0.223571
000080 9c f8 6a 47 71 8e cc bf ca 1a f5 10 8d ee ca bf
       -0.223097 -0.210405
000090 d8 29 56 0d c2 dc ca bf 2f a4 c3 43 18 3f c9 bf
       -0.209862 -0.197238
0000a0 6f 2b bd 36 1b 2b c9 bf 95 2d 92 76 a3 8f c7 bf
       -0.196628 -0.184071
0000b0 ab 5c a8 fc 6b 79 c7 bf 55 87 dc 0c 37 e0 c5 bf
       -0.183393 -0.170905
0000c0 42 5e 0f 26 c5 c7 c5 bf ba 10 ab 3f c2 30 c4 bf
       -0.170159 -0.157738
0000d0 d9 5f 76 4f 1e 16 c4 bf 20 9a 79 72 4d 81 c2 bf
       -0.156925 -0.144571
0000e0 15 91 61 15 6f 64 c2 bf e0 f3 c3 08 e1 d1 c0 bf
       -0.14369 -0.131405
0000f0 ab 92 c8 3e c8 b2 c0 bf 8b fa 24 77 d8 44 be bf
       -0.130456 -0.118238
000100 cf 87 67 09 32 02 be bf 47 af 06 28 0d 35 d4 bf
       -0.117221 -0.315738
000110 f9 f3 6d c1 52 5d d3 bf 12 30 ba bc 39 5c d3 bf
       -0.302571 -0.302504
000120 da 20 93 8c 9c 85 d2 bf b0 c8 af 1f 62 83 d2 bf
       -0.289405 -0.289269
000130 8c 65 fa 25 e2 ad d1 bf 7b 49 63 b4 8e aa d1 bf
       -0.276238 -0.276035
000140 3f aa 61 bf 27 d6 d0 bf 19 e2 58 17 b7 d1 d0 bf
       -0.263071 -0.2628
000150 3e ae 0d 15 e3 fc cf bf ca c5 18 58 c7 f1 cf bf
       -0.249905 -0.249566
000160 a4 37 dc 47 6e 4d ce bf 06 f7 03 1e 18 40 ce bf
       -0.236738 -0.236331
000170 f3 8d e8 9e 75 8d 86 bf 9c 35 78 5f 95 0b 85 bf
       -0.011012 -0.010276
000180 d0 d0 3f c1 c5 8a 7a bf a5 a4 87 a1 d5 c9 49 bf
       -0.00648 -0.000787
000190 00 00 00 00 00 00 00 80 00 00 00 00 00 00 00 80
       -0.0 -0.0
0001a0 00 00 00 00 00 00 00 80 00 00 00 00 00 00 00 80
       -0.0 -0.0
0001b0 90 a2 ce dc 43 c2 b3 bf 08 05 a5 68 e5 5e b0 bf
       -0.077183 -0.063948
0001c0 6b 10 e6 76 2f f7 a9 bf 5a d5 92 8e 72 30 a3 bf
       -0.050714 -0.037479
0001d0 6b b7 5d 68 ae d3 98 bf 44 88 2b 67 ef 8c 86 bf
       -0.024245 -0.011011
0001e0 00 00 00 00 00 00 00 80 00 00 00 00 00 00 00 80
       -0.0 -0.0
0001f0 66 84 b7 07 21 20 c9 bf a2 b5 a2 cd 71 6e c7 bf
       -0.196293 -0.183058
000200 39 b7 09 f7 ca bc c5 bf 75 e8 f4 bc 1b 0b c4 bf
       -0.169824 -0.156589
000210 0c ea 5b e6 74 59 c2 bf a2 eb c2 0f ce a7 c0 bf
       -0.143355 -0.130121
000220 bd 39 5c ab 3d ec bd bf ea 3c 2a fe ef 88 ba bf
       -0.116886 -0.103652
000230 62 9f 00 8a 91 25 b7 bf 2c f5 2c 08 e5 7d d2 bf
       -0.090417 -0.288934
000240 f7 75 e0 9c 11 a5 d1 bf 95 0e d6 ff 39 cc d0 bf
       -0.2757 -0.262465
000250 c1 1e 13 29 cd e6 cf bf fd 4f fe ee 1d 35 ce bf
       -0.249231 -0.235996
000260 93 51 65 18 77 83 cc bf cf 82 50 de c7 d1 ca bf
       -0.222762 -0.209527
000270 00 00 00 00 00 00 00 80 00 00 00 00 00 00 00 80
       -0.0 -0.0
000280 47 74 cf ba 46 cb a9 bf 37 39 7c d2 89 04 a3 bf
       -0.050379 -0.037144
000290 24 7f 30 f0 dc 7b 98 bf 06 12 14 3f c6 dc 85 bf
       -0.02391 -0.010675
0002a0 00 00 00 00 00 00 00 80 00 00 00 00 00 00 00 80
       -0.0 -0.0
0002b0 00 00 00 00 00 00 00 80 00 00 00 00 00 00 00 80
       -0.0 -0.0
0002c0 30 10 04 c8 d0 b1 c5 bf 6c 41 ef 8d 21 00 c4 bf
       -0.169489 -0.156254
0002d0 03 43 56 b7 7a 4e c2 bf 9a 44 bd e0 d3 9c c0 bf
       -0.14302 -0.129786
0002e0 ab eb 50 4d 49 d6 bd bf d9 ee 1e a0 fb 72 ba bf
       -0.116551 -0.103317
0002f0 50 51 f5 2b 9d 0f b7 bf 7e 54 c3 7e 4f ac b3 bf
       -0.090082 -0.076848
000300 f6 b6 99 0a f1 48 b0 bf 10 3b 53 e8 bc c6 d0 bf
       -0.063613 -0.26213
000310 b8 77 0d fa d2 db cf bf f4 a8 f8 bf 23 2a ce bf
       -0.248896 -0.235661
000320 8b aa 5f e9 7c 78 cc bf c6 db 4a af cd c6 ca bf
       -0.222427 -0.209192
000330 5d dd b1 d8 26 15 c9 bf 99 0e 9d 9e 77 63 c7 bf
       -0.195958 -0.182723
000340 00 00 00 00 00 00 00 80 00 00 00 00 00 00 00 80
       -0.0 -0.0
000350 00 00 00 00 00 00 00 80 10 c9 90 63 eb 19 a2 bf
       -0.0 -0.035354
000360 bd aa b3 5a 60 8f a1 bf d8 9e 59 12 a0 a6 96 bf
       -0.034297 -0.02212
000370 8a e4 2b 81 94 d8 95 bf 1d 57 23 bb d2 32 82 bf
       -0.021334 -0.008886
000380 36 e7 e0 99 d0 24 81 bf da 37 f7 57 8f fb c4 bf
       -0.008371 -0.163927
000390 bd 35 b0 55 82 c5 c3 bf bc c9 6f d1 c9 52 c3 bf
       -0.154465 -0.150964
0003a0 f9 66 9b 1b d3 13 c2 bf 9f 5b e8 4a 04 aa c1 bf
       -0.14123 -0.138001
0003b0 90 68 02 45 2c 62 c0 bf 81 ed 60 c4 3e 01 c0 bf
       -0.127996 -0.125038
0003c0 98 33 db 15 fa 60 bd bf c5 fe b2 7b f2 b0 bc bf
       -0.114761 -0.112075
0003d0 c6 36 a9 68 ac fd b9 bf 8a 22 a4 6e 67 5f b9 bf
       -0.101527 -0.099112
0003e0 3d 99 7f f4 4d 9a b6 bf 4e 46 95 61 dc 0d b6 bf
       -0.088292 -0.086149
0003f0 6b 9c 4d 47 00 37 b3 bf 12 6a 86 54 51 bc b2 bf
       -0.075058 -0.073186
000400 c6 fd 47 a6 43 a7 af bf ac 1b ef 8e 8c d5 ae bf
       -0.061823 -0.060223
000410 21 04 e4 4b a8 e0 a8 bf 35 63 d1 74 76 32 a8 bf
       -0.048589 -0.04726
000420 34 82 8d eb df f5 c9 bf 54 01 f7 3c 7f da c8 bf
       -0.202816 -0.194168
000430 16 14 06 65 1a 4d c8 bf 90 32 e2 02 d0 28 c7 bf
       -0.189853 -0.180933
000440 f8 a5 7e de 54 a4 c6 bf 26 34 49 2c 29 77 c5 bf
       -0.17689 -0.167699
000450 00 00 00 00 00 00 00 80 00 00 00 00 00 00 00 80
       -0.0 -0.0
000460 00 00 00 00 00 00 00 80 00 00 00 00 00 00 00 80
       -0.0 -0.0
000470 00 00 00 00 00 00 00 80 00 00 00 00 00 00 00 80
       -0.0 -0.0
000480 00 00 00 00 00 00 00 80 eb 01 f3 90 29 1f ce bf
       -0.0 -0.235326
000490 82 03 5a ba 82 6d cc bf bd 34 45 80 d3 bb ca bf
       -0.222092 -0.208857
0004a0 54 36 ac a9 2c 0a c9 bf 71 e8 2d 1e de 73 c8 bf
       -0.195623 -0.191036
0004b0 00 00 00 00 00 00 00 80 00 00 00 00 00 00 00 80
       -0.0 -0.0
0004c0 00 00 00 00 00 00 00 80 e6 ad ba 0e d5 94 c6 bf
       -0.0 -0.176417
0004d0 00 00 00 00 00 00 00 80 00 00 00 00 00 00 00 80
       -0.0 -0.0
0004e0 00 00 00 00 00 00 00 80 00 00 00 00 00 00 00 80
       -0.0 -0.0
0004f0 00 00 00 00 00 00 00 80 00 00 00 00 00 00 00 80
       -0.0 -0.0
000500 00 00 00 00 00 00 00 80 b5 8d 3f 51 d9 b0 ca bf
       -0.0 -0.208522
000510 4b 8f a6 7a 32 ff c8 bf 87 c0 91 40 83 4d c7 bf
       -0.195288 -0.182053
000520 1e c2 f8 69 dc 9b c5 bf 3a 74 7a de 8d 05 c5 bf
       -0.168819 -0.164232
000530 00 00 00 00 00 00 00 80 00 00 00 00 00 00 00 80
       -0.0 -0.0
000540 00 00 00 00 00 00 00 80 00 00 00 00 00 00 00 80
       -0.0 -0.0
000550 f4 a9 63 95 d2 33 c3 bf 00 00 00 00 00 00 00 80
       -0.150019 -0.0
000560 00 00 00 00 00 00 00 80 00 00 00 00 00 00 00 80
       -0.0 -0.0
000570 00 00 00 00 00 00 00 80 00 00 00 00 00 00 00 80
       -0.0 -0.0
000580 00 00 00 00 00 00 00 80 00 00 00 00 00 00 00 80
       -0.0 -0.0
000590 e8 4d 45 2a 8c 2d c2 bf 04 00 c7 9e 3d 97 c1 bf
       -0.142015 -0.137428
0005a0 15 1b f3 3a e2 90 c5 bf 51 4c de 00 33 df c3 bf
       -0.168484 -0.155249
0005b0 7e 19 8c 11 89 42 c7 bf 00 00 00 00 00 00 00 80
       -0.181718 -0.0
0005c0 00 00 00 00 00 00 00 80 01 4c 19 38 a0 a5 bf bf
       -0.0 -0.123621
0005d0 00 00 00 00 00 00 00 80 00 00 00 00 00 00 00 80
       -0.0 -0.0
0005e0 00 00 00 00 00 00 00 80 00 00 00 00 00 00 00 80
       -0.0 -0.0
0005f0 00 00 00 00 00 00 00 80 00 00 00 00 00 00 00 80
       -0.0 -0.0
000600 00 00 00 00 00 00 00 80 63 b3 23 d5 77 7e bd bf
       -0.0 -0.115211
000610 9c 17 27 be da 51 bc bf 1b d8 2a c1 e2 70 c0 bf
       -0.110624 -0.128445
000620 df a6 3f fb 91 22 c2 bf 48 a5 d8 d1 38 d4 c3 bf
       -0.14168 -0.154914
000630 00 00 00 00 00 00 00 80 00 00 00 00 00 00 00 80
       -0.0 -0.0
000640 00 00 00 00 00 00 00 80 66 a3 73 7e 8a e3 b8 bf
       -0.0 -0.097222
000650 00 00 00 00 00 00 00 80 00 00 00 00 00 00 00 80
       -0.0 -0.0
000660 00 00 00 00 00 00 00 80 00 00 00 00 00 00 00 80
       -0.0 -0.0
000670 00 00 00 00 00 00 00 80 00 00 00 00 00 00 00 80
       -0.0 -0.0
000680 f7 ca bc 55 d7 a1 b6 bf 30 2f c0 3e 3a 75 b5 bf
       -0.088407 -0.08382
000690 7f 68 e6 c9 35 05 ba bf 52 65 18 77 83 68 bd bf
       -0.101642 -0.114876
0006a0 12 31 25 92 e8 65 c0 bf 00 00 00 00 00 00 00 80
       -0.12811 -0.0
0006b0 00 00 00 00 00 00 00 80 00 00 00 00 00 00 00 80
       -0.0 -0.0
0006c0 80 9b c5 8b 85 21 b2 bf 00 00 00 00 00 00 00 80
       -0.070824 -0.0
0006d0 00 00 00 00 00 00 00 80 00 00 00 00 00 00 00 80
       -0.0 -0.0
0006e0 00 00 00 00 00 00 00 80 00 00 00 00 00 00 00 80
       -0.0 -0.0
0006f0 00 00 00 00 00 00 00 80 15 c5 ab ac 6d 8a af bf
       -0.0 -0.061603
000700 86 8d b2 7e 33 31 ad bf e5 7c b1 f7 e2 8b b6 bf
       -0.057016 -0.088072
000710 13 80 7f 4a 95 28 b3 bf b7 79 e3 a4 30 ef b9 bf
       -0.074838 -0.101306
000720 00 00 00 00 00 00 00 80 00 00 00 00 00 00 00 80
       -0.0 -0.0
000730 00 00 00 00 00 00 00 80 35 27 2f 32 01 bf a6 bf
       -0.0 -0.044426
000740 00 00 00 00 00 00 00 80 00 00 00 00 00 00 00 80
       -0.0 -0.0
000750 00 00 00 00 00 00 00 80 00 00 00 00 00 00 00 80
       -0.0 -0.0
000760 00 00 00 00 00 00 00 80 00 00 00 00 00 00 00 80
       -0.0 -0.0
000770 00 00 00 00 00 00 00 80 00 00 00 00 00 00 00 80
       -0.0 -0.0
000780 00 00 00 00 00 00 00 80 4b 91 7c 25 90 12 b3 bf
       -0.0 -0.074502
000790 f2 28 95 f0 84 5e af bf 4d 2f 31 96 e9 97 a8 bf
       -0.061268 -0.048034
0007a0 3c f4 dd ad 2c d1 a1 bf 5b 79 c9 ff e4 ef 9e bf
       -0.034799 -0.030212
0007b0 00 00 00 00 00 00 00 80 00 00 00 00 00 00 00 80
       -0.0 -0.0
0007c0 fc ab c7 7d ab 75 92 bf 00 00 00 00 00 00 00 80
       -0.018027 -0.0
0007d0 00 00 00 00 00 00 00 80 00 00 00 00 00 00 00 80
       -0.0 -0.0
0007e0 00 00 00 00 00 00 00 80 00 00 00 00 00 00 00 80
       -0.0 -0.0
0007f0 00 00 00 00 00 00 00 80 00 00 00 00 00 00 00 80
       -0.0 -0.0
